Model: "sequential"
_________________________________________________________________
 Layer (type)                Output Shape              Param #
=================================================================
 dropout (Dropout)           (None, 2)                 0
 dense (Dense)               (None, 30)                90
 dropout_1 (Dropout)         (None, 30)                0
 dense_1 (Dense)             (None, 30)                930
 dense_2 (Dense)             (None, 1)                 30
=================================================================
Total params: 1,050
Trainable params: 1,050
Non-trainable params: 0
_________________________________________________________________
epoch: 1
Traceback (most recent call last):
  File "c:\Users\jtros\CS\cours\PoleProjet\FormationRecherche\Tsunami\TP\sceance4\Tsunami\Neural_Networks\Tensorflow\Problem_1\NN_TF_problem_1.py", line 491, in <module>
…
